Model: "sequential_21"
┏━━━━━━━━━━━━━━━━━━━━━━━━━━━━━━━━━━━━━━┳━━━━━━━━━━━━━━━━━━━━━━━━━━━━━┳━━━━━━━━━━━━━━━━━┓
┃ Layer (type)                         ┃ Output Shape                ┃         Param # ┃
┡━━━━━━━━━━━━━━━━━━━━━━━━━━━━━━━━━━━━━━╇━━━━━━━━━━━━━━━━━━━━━━━━━━━━━╇━━━━━━━━━━━━━━━━━┩
│ xception (Functional)                │ (None, 7, 7, 2048)          │      20,861,480 │
├──────────────────────────────────────┼─────────────────────────────┼─────────────────┤
│ global_average_pooling2d_13          │ (None, 2048)                │               0 │
│ (GlobalAveragePooling2D)             │                             │                 │
├──────────────────────────────────────┼─────────────────────────────┼─────────────────┤
│ dense_26 (Dense)                     │ (None, 128)                 │         262,272 │
├──────────────────────────────────────┼─────────────────────────────┼─────────────────┤
│ dropout_13 (Dropout)                 │ (None, 128)                 │               0 │
├──────────────────────────────────────┼─────────────────────────────┼─────────────────┤
│ dense_27 (Dense)                     │ (None, 4)                   │             516 │
└──────────────────────────────────────┴─────────────────────────────┴─────────────────┘
 Total params: 21,124,268 (80.58 MB)
 Trainable params: 262,788 (1.00 MB)
 Non-trainable params: 20,861,480 (79.58 MB)

