Model: "sequential_22"
┏━━━━━━━━━━━━━━━━━━━━━━━━━━━━━━━━━━━━━━┳━━━━━━━━━━━━━━━━━━━━━━━━━━━━━┳━━━━━━━━━━━━━━━━━┓
┃ Layer (type)                         ┃ Output Shape                ┃         Param # ┃
┡━━━━━━━━━━━━━━━━━━━━━━━━━━━━━━━━━━━━━━╇━━━━━━━━━━━━━━━━━━━━━━━━━━━━━╇━━━━━━━━━━━━━━━━━┩
│ xception (Functional)                │ (None, 7, 7, 2048)          │      20,861,480 │
├──────────────────────────────────────┼─────────────────────────────┼─────────────────┤
│ global_average_pooling2d_14          │ (None, 2048)                │               0 │
│ (GlobalAveragePooling2D)             │                             │                 │
├──────────────────────────────────────┼─────────────────────────────┼─────────────────┤
│ dense_28 (Dense)                     │ (None, 256)                 │         524,544 │
├──────────────────────────────────────┼─────────────────────────────┼─────────────────┤
│ dropout_14 (Dropout)                 │ (None, 256)                 │               0 │
├──────────────────────────────────────┼─────────────────────────────┼─────────────────┤
│ dense_29 (Dense)                     │ (None, 4)                   │           1,028 │
└──────────────────────────────────────┴─────────────────────────────┴─────────────────┘
 Total params: 21,387,052 (81.59 MB)
 Trainable params: 525,572 (2.00 MB)
 Non-trainable params: 20,861,480 (79.58 MB)

